VAA Program Files/NonTaskingPaths/Trained_Dataset.pth (torch, 6295 bytes, 6 tensors)

l1.weight f4 [8, 80]
0	0xbef8b2a2	-0.48573786
1	0x3faba175	1.3408648
2	0x3b82bc6d	0.0039897473
3	0xbe3a1458	-0.18171823
4	0x3cc24c60	0.023718059
5	0xbe687518	-0.22700918
6	0x3dc1b25f	0.0945785
7	0xbe45aba3	-0.19303755
8	0xbec54ef9	-0.38536814
9	0x3f3558e5	0.7083877
10	0xbe0f2894	-0.13980323
11	0xbe0f39c6	-0.13986883
12	0xbf33f718	-0.7029891
13	0xbf4efa64	-0.80850816
14	0x3edf4086	0.43603915
15	0x3ec721c6	0.38892955
16	0x3edd0b26	0.43172568
17	0x3f0ad8f2	0.5423728
18	0xbbd2220a	-0.006412749
19	0x3f11f40d	0.57013017
20	0x3d330f4a	0.043715753
21	0x3e4e11f1	0.20124032
22	0x3eae1d9e	0.3400697
23	0x3e9cce5e	0.30626196
24	0x3f20738b	0.62676305
25	0xbed2d782	-0.41180044
26	0xbf7fd115	-0.9992841
27	0x3ecda4d2	0.4016481
28	0x3ef97cd2	0.48728043
29	0x3efad53b	0.48990807
30	0x3eb74bc2	0.35799986
31	0x3e8f544e	0.27994007
32	0x3e48dc98	0.196154
33	0xbe6bad51	-0.23015334
34	0x3e3e1746	0.18563566
35	0x3eb36672	0.35039097
36	0x3e2095f9	0.1568221
37	0xbe0d4e19	-0.13799323
38	0x3e0959f3	0.13413219
39	0x3f3bbbd9	0.7333351
40	0x3f33005e	0.69922435
41	0x3f1edda5	0.6205695
42	0x3e18eb2e	0.14933464
43	0x3ebcf84b	0.36908183
44	0x3ea23cfc	0.31687152
45	0x3e833b04	0.25630963
46	0xbf76013f	-0.9609565
47	0x3f367fd5	0.71288806
48	0x3d5e6e88	0.05430463
49	0x3f5f90b5	0.8733018
50	0x3f090a81	0.5353165
51	0x3f8ed5ed	1.1159035
52	0x3f06317a	0.52419245
53	0xbecca3b6	-0.39968652
54	0xbd3c73df	-0.04600894
55	0x3f5251ad	0.8215588
56	0x3f599051	0.84985834
57	0x3f4065ce	0.7515534
58	0xbec6d999	-0.3883789
59	0xbf1d7234	-0.61502385
60	0x3ef92018	0.48657298
61	0x3fb833cb	1.4390806
62	0x3f237226	0.6384605
63	0xbeb60600	-0.35551453
64	0xbeabd199	-0.33558348
65	0x3ea9a095	0.33130327
66	0xbe2e1843	-0.17001443
67	0xbdad34ff	-0.08457374
68	0xbeb3f4a5	-0.35147586
69	0x3f165738	0.58726835
70	0x3f51c8f3	0.8194725
71	0xbeb9004a	-0.36133033
72	0x3f2eca13	0.6827709
73	0xbef3e065	-0.47632137
74	0xbf638729	-0.88878113
75	0xbe4dcf31	-0.20098568
76	0x3edecf19	0.43517378
77	0x3f236079	0.6381908
78	0xbe1f47d7	-0.15554748
79	0x3f080153	0.5312702
80	0x3ed280e5	0.41113964
81	0xbedc0686	-0.42973727
82	0x3d232024	0.039825574
83	0x3edb0c56	0.4278285
84	0xbc1f9fc1	-0.009742678
85	0xbeace42e	-0.33767837
86	0xbebdd11c	-0.370736
87	0x3e83abd1	0.25717023
88	0xbeb8355a	-0.35978204
89	0xbc8616de	-0.016368326
90	0x3f404184	0.7509997
91	0x3f2927bb	0.6607625
92	0x3ec21658	0.37907672
93	0x3e94bfda	0.2905262
94	0x3f685e1e	0.9076861
95	0x3f38d98f	0.7220697
96	0x3f771bf8	0.9652705
97	0x3f9b1f72	1.2118971
98	0x3ed41f87	0.41430303
99	0x3d5444f1	0.05182356
100	0xbdc49676	-0.09599011
101	0xbebdd8ad	-0.37079373
102	0x3eab412d	0.33448163
103	0xbd259187	-0.04042199
104	0x3e30a3cc	0.17249984
105	0xbebdb235	-0.37050024
106	0xbdfca559	-0.12336225
107	0xbea18b70	-0.31551695
108	0x3c839147	0.016060485
109	0xbebda5ef	-0.3704066
110	0xbe111479	-0.14167966
111	0xbdb2efd8	-0.08737153
112	0xbebda1b9	-0.37037447
113	0x3e63c0d6	0.2224153
114	0xbebdc3a9	-0.3706334
115	0xbbf5097c	-0.0074779373
116	0x3ed4ece0	0.4158697
117	0xbebdc9ac	-0.37067926
118	0x3ea4463e	0.3208484
119	0xbd01c2f4	-0.031680062
120	0xbf09bf3b	-0.5380742
121	0xbf11ea6c	-0.56998324
122	0x3f69ac05	0.91278106
123	0x3f8a1caf	1.0790004
124	0x3f4f50f6	0.8098291
125	0x3f13f658	0.57797766
126	0x3f83dc69	1.0301639
127	0x3d7d1257	0.06178507
128	0x3f3d8b77	0.7404093
129	0xbb6dbfb4	-0.0036277594
130	0xbb98829f	-0.004654243
131	0xbf89ecd5	-1.07754
132	0xbf099064	-0.5373595
133	0x3f2451c1	0.64187247
134	0xbe235e35	-0.15953906
135	0xbebd9efc	-0.37035358
136	0xbebd9ba7	-0.37032816
137	0xbebdacd1	-0.3704591
138	0xbebdb28d	-0.37050286
139	0x3f562de0	0.8366375
140	0xbe9545b2	-0.29154736
141	0xbf6fc218	-0.9365554
142	0x3f3f3900	0.7469635
143	0x3f05bd57	0.52242035
144	0x3e792af5	0.24332793
145	0xbd866671	-0.06562508
146	0x3e23467c	0.15944856
147	0xbe58005d	-0.21093889
148	0x3e1d31ce	0.1535103
149	0xbda49902	-0.080369964
150	0x3cb3b9ff	0.021939276
151	0x3e88c872	0.26715428
152	0xbdf51e47	-0.119686656
153	0x3e83c432	0.25735623
154	0x3fdee122	1.7412455
155	0x3f5b2e29	0.8561731
156	0x3f6ddf0d	0.92918473
157	0xbc2dbc84	-0.010604028
158	0x3f6ec8fa	0.93275416
159	0x3f32bcb9	0.6981922
160	0x3f2ea52a	0.6822077
161	0x3f9ae0dc	1.2099872
162	0x3e76499f	0.24051522
163	0x3f17e5e2	0.5933515
164	0xbebd9402	-0.37026983
165	0xbf5cd8f2	-0.8626853
166	0x3f82213d	1.0166394
167	0xbf0d5acb	-0.55216664
168	0xbf5d067d	-0.86338025
169	0x3f2d23b2	0.6763259
170	0x3e8170fe	0.2528152
171	0x3f36e395	0.7144101
172	0xbf90f7db	-1.132564
173	0xbf85692e	-1.0422723
174	0x3f4fd936	0.8119081
175	0x3ed3f28e	0.41395992
176	0x3f4577c7	0.7713589
177	0x3ec64d85	0.38731018
178	0x3e858a5d	0.26082125
179	0x3f12c9ff	0.5733947
180	0xbefc2884	-0.4924966
181	0x3f91c2ce	1.1387575
182	0x3f3c6af8	0.7360072
183	0x3f56712c	0.83766437
184	0x3ef3fb83	0.47652826
185	0xbf54c9cc	-0.8312042
186	0xbf7fd3c3	-0.999325
187	0xbf3f83ca	-0.7481047
188	0x3f4eb847	0.80749935
189	0xbf5cda70	-0.8627081
190	0xbe399972	-0.18124941
191	0x3d9e82f3	0.0773982
192	0x3f8b8c40	1.0902176
193	0xbf8637bb	-1.0485758
194	0x3f8d3e6a	1.1034672
195	0x3f8298c0	1.0202866
196	0x3d3aa808	0.045570403
197	0xbf5cdb51	-0.8627215
198	0x3f3c473b	0.7354619
199	0x3ebfaf7d	0.37438574
200	0xbf5b4cb2	-0.856639
201	0xbf525600	-0.82162476
202	0xbe573eba	-0.21020022
203	0x3f3d5b37	0.7396731
204	0x3e204ae3	0.15653567
205	0xbec57ed3	-0.38573322
206	0x3ee150e1	0.44007018
207	0x3f10cd2e	0.5656308
208	0x3e885daa	0.2663396
209	0x3f41b694	0.7566922
210	0x3f01b625	0.50668555
211	0xbe810002	-0.25195318
212	0xbf166643	-0.5874979
213	0x3e568399	0.20948638
214	0xbec6d02e	-0.38830703
215	0xbf5cd955	-0.8626912
216	0xbf558420	-0.8340473
217	0xbf5abf15	-0.8544782
218	0xbf5cd170	-0.86257076
219	0x3f69075d	0.9102686
220	0xbf053e3e	-0.520481
221	0x3e3674fe	0.17818066
222	0x3e9abbc2	0.30221373
223	0x3edb2247	0.4279959
224	0xbf0c87b5	-0.5489457
225	0x3e0fd401	0.14045717
226	0xbdc73c84	-0.09728339
227	0xbef2ec99	-0.47446135
228	0xbf3309ed	-0.6993702
229	0x3f390873	0.7227852
230	0x3f016b39	0.50554234
231	0xbdc089ea	-0.09401305
232	0x3f368c98	0.7130828
233	0xbf185e8a	-0.59519255
234	0x3f24cd25	0.64375526
235	0x3eb1a946	0.34699458
236	0x3de68491	0.11255754
237	0x3f2891a4	0.6584723
238	0x3f8880f5	1.0664355
239	0x3f0c0860	0.5470028
240	0x3e765539	0.24055947
241	0xbf859cee	-1.0438516
242	0xbea4316f	-0.32068965
243	0x3e59e8ee	0.21280262
244	0x3f1b6c53	0.60712165
245	0x3f769cfc	0.9633329
246	0x3e0dc591	0.13844897
247	0x3eb3065b	0.34965786
248	0x3f71c184	0.94435906
249	0xbe90b560	-0.28263378
250	0x3f086c69	0.5329042
251	0xbece5599	-0.4029968
252	0x3f366fca	0.71264327
253	0x3f2ae2f1	0.66752535
254	0x3e9128fe	0.28351587
255	0x3ec246bd	0.37944594

l1.bias f4 [8]
0	0x3f9d0d75	1.2269732
1	0x3ebcfb6a	0.36910564
2	0x3f5ce0f9	0.8628078
3	0x3f37031c	0.7148912
4	0x3f2c9781	0.67418677
5	0x3fac4bdd	1.3460652
6	0x3fcc5094	1.596209
7	0x3f738a03	0.95132464

l2.weight f4 [8, 8]
0	0xbf19f336	-0.60136735
1	0x3fc3bc1f	1.5291785
2	0xbfc914e0	-1.5709496
3	0x3fb927da	1.4465287
4	0x3f8a8f15	1.0824915
5	0x3f9fa2b8	1.2471533
6	0x3f1bbd21	0.6083546
7	0x3f1d88be	0.61536777
8	0x40219bd1	2.5251353
9	0x3f1adf40	0.604969
10	0x400cfe13	2.2030075
11	0xbf5d5d53	-0.86470526
12	0xbfd13d86	-1.63469
13	0xbe10b95e	-0.14133212
14	0x3fa9df5a	1.3271286
15	0x3d64abf1	0.05582804
16	0xbfe62031	-1.7978574
17	0x3e84b59a	0.259198
18	0xbed4a4c3	-0.41531953
19	0x3ee8cd65	0.45469204
20	0x3f95c13e	1.1699598
21	0xbfb8582b	-1.4401907
22	0x3d7dec4c	0.06199293
23	0x3fa89a89	1.317216
24	0xbe82eae7	-0.2556984
25	0xbe2faa27	-0.17154752
26	0x3e527d9c	0.20555729
27	0x3e0d5a64	0.13804013
28	0xbe34e8f5	-0.17666991
29	0x3df14aa5	0.117818154
30	0xbc477cd3	-0.0121757565
31	0x3cc0679c	0.023486905
32	0xbe1d5e9a	-0.15368119
33	0xbeb017bb	-0.34393105
34	0xbe120f22	-0.14263585
35	0xbd1391a8	-0.03602758
36	0x3e999f45	0.30004326
37	0xbe3f334a	-0.18671909
38	0xbe9674e4	-0.29386055
39	0xbd657908	-0.056023628
40	0xbfdb8944	-1.7151265
41	0x3fc17096	1.5112484
42	0x3f6365b9	0.8882709
43	0x400ab02a	2.1670022
44	0x40045477	2.0676553
45	0xbf7ef249	-0.9958845
46	0x3f858648	1.0431604
47	0x3f580af9	0.8439174
48	0x3e468cee	0.19389698
49	0xbdefb37f	-0.11704158
50	0xbe9f12e4	-0.310691
51	0x3e7f820a	0.2495195
52	0xbe66ee0c	-0.22551745
53	0xbe6531d0	-0.22382283
54	0xbe43ff45	-0.19140346
55	0xbe8eed96	-0.2791564
56	0x3fa1e849	1.2649013
57	0xbfbd770e	-1.4801958
58	0xbfc8edae	-1.5697534
59	0x3f774c9c	0.9660127
60	0x3f5c1618	0.8597121
61	0x3ffbe083	1.967789
62	0x3fa10c04	1.2581792
63	0x3fd51e31	1.6649839

l2.bias f4 [8]
0	0xbe156fd1	-0.14593436
1	0x3f6ff398	0.9373107
2	0x3e3f4afa	0.18680945
3	0xbe69c075	-0.22827323
4	0xbea77e79	-0.32713678
5	0x3e76059a	0.24025574
6	0xbe356ee8	-0.17718089
7	0x3f1759fc	0.5912168

l3.weight f4 [11, 8]
0	0x3f2e97d7	0.6820044
1	0xbfcd5cef	-1.6043986
2	0xc00138ac	-2.019084
3	0x3e98645c	0.29764068
4	0xbda699bc	-0.08134791
5	0xbeec7745	-0.46184745
6	0x3e5e3e03	0.21703343
7	0x3f4bd260	0.7961788
8	0xbf88188b	-1.063249
9	0x3f8f17de	1.1179159
10	0xbe4c9c39	-0.19981469
11	0x3d37e48b	0.04489569
12	0xbc9ee5d0	-0.019396693
13	0xbfb161b5	-1.3857943
14	0x3cc3abca	0.023885626
15	0xbfff912f	-1.9966182
16	0xbf5fac20	-0.87372017
17	0x3f283240	0.65701675
18	0xbeeb1f56	-0.45922345
19	0xbe45a866	-0.1930252
20	0xbe76ec2a	-0.24113527
21	0xc0380a21	-2.8756182
22	0xbe706441	-0.23475744
23	0x3eda8d96	0.42686146
24	0x3ec28b84	0.37997067
25	0xbe937246	-0.2879812
26	0xbedb037a	-0.4277609
27	0xbceb3f35	-0.028716663
28	0xbe0aabe3	-0.13542132
29	0xc00a4b43	-2.1608436
30	0x3d0e9a95	0.03481539
31	0x3f83c1df	1.029354
32	0x3eaeda31	0.34150842
33	0xbe26d28f	-0.16291259
34	0xc00cf35f	-2.2023542
35	0xbe4fc5b8	-0.20290267
36	0x3e3cdf8a	0.18444648
37	0x3f1d1b84	0.6137011
38	0x3e7ee38f	0.24891494
39	0xc006223a	-2.095839
40	0x3ef90d14	0.4864279
41	0xbf12d01a	-0.5734879
42	0xbf300dca	-0.6877104
43	0x3e1fe255	0.15613683
44	0xbe5174f2	-0.20454767
45	0x3d345df0	0.0440349
46	0x3e6ecdf8	0.23320758
47	0xbcba6a60	-0.022755802
48	0x3f22d915	0.6361249
49	0xc0089a32	-2.1344113
50	0x3f944641	1.158394
51	0xbeb3f8be	-0.35150713
52	0xbe83da92	-0.25752693
53	0x3e82d1fd	0.25550833
54	0x3eaad404	0.3336488
55	0xbe954522	-0.29154307
56	0xbf8a167c	-1.0788112
57	0x3d37a123	0.044831406
58	0xbff3e46b	-1.9054083
59	0x3e2983be	0.16554162
60	0xbd908ba0	-0.07057881
61	0x3e2e3b91	0.1701491
62	0xbeaed37e	-0.3414573
63	0x3e77079d	0.24123998
64	0xbff65cfa	-1.9247124
65	0x3f0082f3	0.5019981
66	0xbff1350d	-1.8844315
67	0x3d98bee3	0.07458284
68	0xbde6adac	-0.11263594
69	0x3f111103	0.5666658
70	0x3e22fe85	0.15917404
71	0xc00bd25a	-2.1847138
72	0xbd3368a5	-0.04380097
73	0xbf164be8	-0.58709574
74	0x3f1b5c80	0.6068802
75	0x3decb97f	0.11558818
76	0x3e15ea84	0.14640242
77	0x3f13109e	0.5744723
78	0x3d9075fd	0.070537545
79	0xbf80463b	-1.0021433
80	0xbf2df060	-0.6794491
81	0xbfa41c79	-1.2821189
82	0xbe64327e	-0.22284886
83	0x3be7c482	0.007072986
84	0xbeb21ebc	-0.34789073
85	0xbf04a12d	-0.51808435
86	0xbea31d99	-0.3185852
87	0xbf0b63cc	-0.5444915

l3.bias f4 [11]
0	0xbe82883e	-0.2549457
1	0x3e55fde6	0.20897636
2	0x3eec8018	0.46191478
3	0xbf02eecd	-0.5114563
4	0xbe6bf864	-0.23043972
5	0xbf33d62a	-0.70248663
6	0xbef32ae8	-0.47493672
7	0x3ebbfd2a	0.36716586
8	0x3e8e8425	0.27835193
9	0xbd7a0bb0	-0.061046302
10	0xbd525ae9	-0.05135623
