VAA Program Files/Chatbot.pth (torch, 6295 bytes, 6 tensors)

l1.weight f4 [8, 80]
0	0x3e816ea4	0.25279725
1	0x3f85f1b1	1.0464383
2	0x3efbaf9f	0.49157426
3	0x3f6b87ad	0.920039
4	0xbea4f83b	-0.32220635
5	0xbf1f2ace	-0.6217469
6	0x3ef43cac	0.4770254
7	0xbdf1e8f7	-0.11812013
8	0xbf12bc70	-0.5731878
9	0x3f251e0e	0.64498985
10	0x3f235169	0.637961
11	0x3ed424ce	0.4143433
12	0x3f67babc	0.9051931
13	0x3f2e1e7f	0.68015283
14	0x3f83fa7c	1.0310817
15	0x3ee2af03	0.44274148
16	0x3f7dd453	0.99152106
17	0x3f4b73a5	0.79473335
18	0x3eb93f2b	0.36181006
19	0xbe7aa009	-0.24475111
20	0xbecbb279	-0.397846
21	0x3ef94ad7	0.4868991
22	0x3e9f435b	0.31106076
23	0x3efa5301	0.48891452
24	0x3ebd70ab	0.3700002
25	0xbf245a04	-0.6419985
26	0xbcb664eb	-0.022264918
27	0x3f37287b	0.71546143
28	0x3e483b41	0.19553854
29	0x3f210011	0.62890726
30	0x3eb248f8	0.34821296
31	0x3f2b026d	0.66800576
32	0x3efde753	0.4959055
33	0x3e961c08	0.2931826
34	0x3f1b0325	0.60551673
35	0x3f788648	0.97079897
36	0x3e062a34	0.13102037
37	0xbf151cf6	-0.58247316
38	0x3f2707ef	0.6524648
39	0xbf03bf9e	-0.5146426
40	0x3f09ff1f	0.5390491
41	0x3f11321b	0.5671708
42	0xbf86a628	-1.0519457
43	0x3f9d9dc6	1.2313774
44	0xbf008736	-0.50206316
45	0xbef700e8	-0.4824288
46	0x3eb9c6a8	0.36284375
47	0xbe117164	-0.14203411
48	0x3ee8cf6a	0.45470744
49	0xbed9ebbc	-0.42562664
50	0xbe7b9fef	-0.24572729
51	0x3f800c18	1.0003691
52	0x3f014041	0.5048867
53	0x3f252fe4	0.645262
54	0xbebbeaa2	-0.36702448
55	0x3f4e134b	0.8049819
56	0x3f5aacce	0.8541993
57	0x3f3e0640	0.74228287
58	0xbf32dace	-0.6986512
59	0xbe2cf92f	-0.16891931
60	0x3e840702	0.25786597
61	0xbf1146aa	-0.5674845
62	0x3ec725af	0.38895938
63	0xbd909698	-0.070599735
64	0x3e90f500	0.2831192
65	0x3f3297a6	0.6976265
66	0x3f2670ce	0.65015876
67	0xbea874ba	-0.32901555
68	0x3ee5c29c	0.44875038
69	0xbe530dfb	-0.20610802
70	0x3f4029bc	0.7506368
71	0x3f07f2a6	0.5310463
72	0x3f48ff77	0.7851481
73	0x3ebcb970	0.36860228
74	0x3f828b86	1.0198829
75	0x3f42b6d3	0.7606022
76	0xbee0e5b7	-0.4392526
77	0xbe1ecac9	-0.15507044
78	0x3f5881f8	0.84573317
79	0x3f668127	0.9004082
80	0x3e47707d	0.19476505
81	0x3f09d0cf	0.5383424
82	0xbe89c65d	-0.26909152
83	0x3f153d43	0.582966
84	0x3e6c9daa	0.23107019
85	0x3ef651aa	0.4810918
86	0x3e82e99f	0.25568864
87	0xbd6a867b	-0.057257157
88	0x3ec0bab2	0.37642437
89	0xbe322c5e	-0.17399737
90	0xbe2a6cb7	-0.16643034
91	0x3eeb80f3	0.45996818
92	0xbf521c39	-0.82074314
93	0xbee32d84	-0.44370663
94	0xbe57da10	-0.21079278
95	0xbdf270a0	-0.11837888
96	0xbe66c6f4	-0.22536832
97	0xbda603fd	-0.081062295
98	0x3eac8d53	0.33701572
99	0xbe3255e8	-0.17415583
100	0x3e942959	0.28937796
101	0x3e91b8a8	0.28461194
102	0x3e5989e5	0.21244009
103	0x3bfb321c	0.0076658856
104	0xbe53a20b	-0.20667283
105	0x3ecaf837	0.39642498
106	0xbf3bcc25	-0.73358375
107	0xbea14579	-0.31498316
108	0x3e1f50d3	0.15558176
109	0xbeb4bed2	-0.35301834
110	0xbd8af04d	-0.06784115
111	0x3e3504ff	0.17677687
112	0x3e7985bb	0.2436742
113	0xbf005003	-0.5012209
114	0x3e87b31a	0.2650383
115	0x3e62e140	0.22156239
116	0x3e5da65a	0.2164549
117	0x3eae5aef	0.34053752
118	0x3f2b472b	0.6690547
119	0xbeae9634	-0.3409897
120	0xbeddc989	-0.43317822
121	0xbe991e4a	-0.2990592
122	0x3f263a46	0.6493267
123	0xbe053d49	-0.1301166
124	0x3eb6bb0f	0.3568959
125	0x3df13ff9	0.1177978
126	0x3f0c29ac	0.54751086
127	0xbe64fbea	-0.22361723
128	0x3dc535c6	0.09629397
129	0xbe9a6952	-0.30158478
130	0x3d4e59c0	0.05037856
131	0xbf656dcc	-0.8962066
132	0xbeb787fa	-0.3584593
133	0xbe19612b	-0.14978473
134	0x3e43055d	0.19045015
135	0xbeb4a3ca	-0.3528121
136	0xbeb419b0	-0.35175848
137	0xbeb4138a	-0.35171157
138	0x3f30d279	0.69071156
139	0x3edd07c5	0.4316999
140	0xbeb15351	-0.34633878
141	0xbefd1c3a	-0.49435598
142	0xbd0f2c73	-0.0349545
143	0x3ef91a1f	0.4865274
144	0xbef6adde	-0.48179525
145	0xbe3e2128	-0.18567336
146	0xbcefafbf	-0.029258607
147	0x3ecc653e	0.39920992
148	0xbf055cbe	-0.5209464
149	0xbdd83503	-0.10556986
150	0xbd8f8d19	-0.07009334
151	0x3d0376f0	0.03209585
152	0xbe347dd4	-0.17626125
153	0xbeb21841	-0.3478413
154	0x3edac264	0.42726433
155	0xbd0c5bb0	-0.034267128
156	0x3ea34f97	0.3189666
157	0xbdbbc815	-0.09169022
158	0x3f1d1990	0.6136713
159	0xbcd3eec7	-0.025870694
160	0x3e999a7b	0.30000672
161	0xbf25859e	-0.6465701
162	0x3e92fc01	0.2870789
163	0x3f49fd9e	0.78902614
164	0x3da2c4eb	0.07947715
165	0x3eb18be6	0.34677047
166	0xbe1a2283	-0.15052228
167	0x3e2310f0	0.1592443
168	0x3f30c07d	0.69043714
169	0xbea30515	-0.31839815
170	0xbe20f32b	-0.15717761
171	0x3ef97acf	0.48726508
172	0x3ec1efba	0.3787821
173	0xbe04021c	-0.1289143
174	0xbf021b0b	-0.50822514
175	0xbe4c9b70	-0.1998117
176	0xbef69321	-0.48159125
177	0xbe6d8547	-0.23195373
178	0x3f4ab029	0.7917505
179	0xbcae243f	-0.021257518
180	0x3e397b3f	0.18113421
181	0xbe1b7dbc	-0.15184683
182	0x3f04a1e4	0.51809525
183	0x3efef845	0.4979879
184	0x3eafdbf7	0.34347507
185	0x3e8e6974	0.2781483
186	0x3ed259dd	0.41084185
187	0xbeb5ce70	-0.35509062
188	0x3e750829	0.23928894
189	0xbe19d013	-0.1502078
190	0xbe20d2e0	-0.15705442
191	0xbda70ff1	-0.081573375
192	0xbe1b0783	-0.15139584
193	0x3e38c786	0.18044862
194	0xbe1b1f88	-0.15148747
195	0x3eea1948	0.45722413
196	0x3e6afc61	0.22947837
197	0x3f2c18a0	0.67225075
198	0x3f297496	0.6619352
199	0xbe85bff3	-0.26123008
200	0xbea9b60f	-0.33146712
201	0xbf1d8fe2	-0.6154767
202	0x3f07e6e7	0.53086704
203	0xbf06da92	-0.5267726
204	0x3ed8df3b	0.4235781
205	0x3f01949c	0.50617385
206	0x3f203f99	0.6259704
207	0xbddd1ec9	-0.107968874
208	0xbe8562a8	-0.2605183
209	0xbe19d5b8	-0.15022933
210	0xbdfeecd2	-0.12447514
211	0xbf3cf2fb	-0.7380826
212	0xbecb4e60	-0.39708233
213	0x3eb5964e	0.35466236
214	0x3e881a70	0.2658267
215	0xbe19ff20	-0.15038729
216	0xbe1f7169	-0.15570606
217	0xbe1a3eb8	-0.15062988
218	0x3ed2cc4c	0.4117149
219	0x3f2109f9	0.6290584
220	0xbe95e226	-0.292741
221	0xbee51cec	-0.44748628
222	0xbe2b9b65	-0.16758497
223	0x3f5961ef	0.8491506
224	0x3da51666	0.08060913
225	0x3e4f9200	0.20270538
226	0x3f2e287b	0.6803052
227	0x3de255b7	0.11051505
228	0x3e9e370e	0.30901378
229	0xbe04264e	-0.12905237
230	0xbe859346	-0.26088923
231	0x3e32e149	0.17468752
232	0xbe62b8da	-0.22140828
233	0x3e8854ba	0.2662714
234	0x3ec5475f	0.38531014
235	0xbe0cc55d	-0.13747163
236	0x3ec0a7dd	0.3762807
237	0xbd2d4066	-0.042297743
238	0x3f30220b	0.68801945
239	0xbe003b28	-0.12522566
240	0xbeb696b0	-0.3566184
241	0x3f87d05f	1.0610465
242	0xbecc1973	-0.39863166
243	0x3eb34c8a	0.35019332
244	0xbe29eca0	-0.16594172
245	0xbea7c976	-0.3277089
246	0xbeb0af97	-0.34508964
247	0x3e0abfef	0.1354978
248	0xbeab31fb	-0.3343657
249	0x3efba59f	0.49149796
250	0xbecb0d4d	-0.39658585
251	0xbf218128	-0.630877
252	0x3f3e10b9	0.74244267
253	0x3e9a3e5e	0.30125707
254	0xbe7718c5	-0.24130543
255	0xbe8b20dc	-0.27173507

l1.bias f4 [8]
0	0x3f44dee3	0.769026
1	0x3eb41be7	0.35177538
2	0x3e19cde5	0.15019949
3	0x3eb07824	0.3446666
4	0x3f3dbd54	0.74117017
5	0x3ea86385	0.32888427
6	0x3f8463aa	1.0342915
7	0x3f2dd1fb	0.6789853

l2.weight f4 [8, 8]
0	0xbdeabdfa	-0.114620164
1	0x3f7218d1	0.94569117
2	0x3fd6af5f	1.6772269
3	0x3fea0383	1.8282322
4	0xbd3641a4	-0.044496194
5	0x3f94c4de	1.1622579
6	0x3ea814cf	0.32828376
7	0x3f39a726	0.72520673
8	0xbf453b7c	-0.7704389
9	0x3f0be3a4	0.5464423
10	0xbfab23fe	-1.3370359
11	0x3eb87102	0.36023718
12	0xbe240175	-0.16016181
13	0x3f90034a	1.1251004
14	0x3ee69d22	0.45041758
15	0x3f1084b4	0.5645249
16	0x3ffc295e	1.9700124
17	0x3f8f6dff	1.1205443
18	0x3f1f7857	0.62293
19	0xbb43e1d7	-0.002988925
20	0x3ef07c19	0.4696968
21	0x3cb9d209	0.02268316
22	0xbe4c7781	-0.19967462
23	0xbfa480c8	-1.2851801
24	0xbf6d4edc	-0.92698455
25	0x3f936f0f	1.1518267
26	0x3dbe997e	0.0930662
27	0xbf3389d1	-0.70132166
28	0x3fdaf01b	1.7104524
29	0xbeafd2ae	-0.34340423
30	0x3f3c547e	0.73566425
31	0x3f702bf5	0.93817073
32	0xbeb3f840	-0.35150337
33	0xbde81691	-0.11332429
34	0x3f469d11	0.77583414
35	0xbdc3a60c	-0.09553155
36	0x3f903cae	1.1268518
37	0x3fd4a2b1	1.661215
38	0x3f92bc94	1.14638
39	0x3fb8dc21	1.4442178
40	0x3f5a0f5b	0.8517968
41	0xbf2c575d	-0.67320806
42	0xbe9a03cc	-0.30081022
43	0xbf66a0c6	-0.9008907
44	0x3f8bbd2c	1.0917106
45	0xbf83c193	-1.0293449
46	0x3faf3b76	1.3690021
47	0x3f1b7e4a	0.60739577
48	0x3d745cba	0.059658743
49	0xbe8bc17e	-0.2729606
50	0x3c097ff7	0.008392326
51	0x3fc27165	1.5190855
52	0xbee323b3	-0.44363174
53	0x3f8564cc	1.0421386
54	0x3f5cc614	0.86239743
55	0xbe6e2c06	-0.23258981
56	0x3f30f807	0.6912846
57	0xbfb102f2	-1.3829024
58	0xbf39031f	-0.7227039
59	0xbd1b6e06	-0.037946723
60	0xbfaeb085	-1.364762
61	0x3e7ccbd0	0.24687123
62	0x3fca597f	1.5808562
63	0x3fa4b534	1.2867799

l2.bias f4 [8]
0	0xbf294291	-0.661172
1	0x3e0d2812	0.13784817
2	0x3f4ac3cb	0.79205006
3	0x3f491060	0.7854061
4	0xbd67308d	-0.056442786
5	0x3f6e5c90	0.9310999
6	0xbe6fd904	-0.23422629
7	0x3f5caeb2	0.86204064

l3.weight f4 [11, 8]
0	0xbee238d9	-0.44183996
1	0xbf06e745	-0.5269664
2	0xbfeb4010	-1.8378925
3	0x3f96dbaa	1.1785786
4	0x3eb84e99	0.35997465
5	0x3f0be2b3	0.5464279
6	0xbfbf1c78	-1.4930563
7	0xbde3a205	-0.11114887
8	0x3e4b74c7	0.19868766
9	0xbff082da	-1.8789933
10	0x3eff5fbf	0.49877736
11	0xbfc99ef9	-1.575164
12	0xbfd62919	-1.6731292
13	0xbed6eeeb	-0.41979155
14	0x3e9e431f	0.30910584
15	0x3e481ff1	0.19543435
16	0xbf174fed	-0.5910633
17	0x3fd05a8f	1.6277636
18	0xbfd0024c	-1.6250701
19	0xbde21bae	-0.11040436
20	0x3e755ba5	0.23960741
21	0xbee15055	-0.440066
22	0x3e77c793	0.24197225
23	0x3f5d0934	0.8634217
24	0xbfe7ca59	-1.8108627
25	0xbfa3d786	-1.2800148
26	0x3cbbc019	0.022918748
27	0xbf8db4b3	-1.107077
28	0xbe41d256	-0.18927893
29	0x3f553095	0.83277255
30	0xbf57f06f	-0.8435125
31	0x3fae615c	1.3623462
32	0xbfb16ae3	-1.3860744
33	0xbf858a56	-1.0432842
34	0x3fa59364	1.2935605
35	0xbfeeb50d	-1.8649002
36	0xbfc9b337	-1.5757817
37	0x3ee15d4f	0.440165
38	0xc00f0d1f	-2.2351758
39	0x3c949367	0.018136693
40	0x3ee7b0e6	0.4525215
41	0x3d072fee	0.033004694
42	0xbf60eb18	-0.87858725
43	0x3f1744be	0.5908927
44	0x3e7317ec	0.23739594
45	0xbfb55f51	-1.4169713
46	0xbe90e647	-0.28300688
47	0xbfc0038f	-1.5001086
48	0x3e95b1b8	0.2923715
49	0xbfe27460	-1.7691765
50	0xbf6d2962	-0.9264127
51	0xc00474f2	-2.0696378
52	0x3edba342	0.42897993
53	0xbd83646d	-0.06415639
54	0x3ef102a1	0.47072318
55	0x3df381ea	0.118900135
56	0xc02e006f	-2.7187765
57	0xc030aefe	-2.7606807
58	0x3ee79604	0.4523164
59	0x3f45db7f	0.7728805
60	0xbd1daed5	-0.03849681
61	0x3f66146b	0.89874905
62	0xbfff3405	-1.993775
63	0xbf8d7658	-1.1051741
64	0x3ef96add	0.48714343
65	0xbf6c2139	-0.92238194
66	0x3e8e01fa	0.27735883
67	0xbfe5d3ba	-1.7955239
68	0x3e3b9716	0.18319353
69	0xbfd8af5b	-1.6928514
70	0x3eaeff80	0.34179306
71	0xbfe22787	-1.7668313
72	0x3e0fb061	0.14032127
73	0xc00f265c	-2.2367163
74	0x3ebe7a09	0.3720248
75	0xbe086999	-0.13321532
76	0x3e9c7b32	0.3056274
77	0xbea62a30	-0.32454062
78	0xbf9cb428	-1.2242479
79	0xbf87f23d	-1.06208
80	0xbf6006b8	-0.8751025
81	0xbe5205ef	-0.20510076
82	0xbf2fe5e1	-0.6871014
83	0xbf701b10	-0.93791294
84	0xbf2e33a6	-0.6804756
85	0xbf5eeaff	-0.87077326
86	0xbf357a60	-0.70889854
87	0xbee3e06a	-0.44507152

l3.bias f4 [11]
0	0xbe3f7a0f	-0.18698905
1	0x3d0f0ca1	0.034924153
2	0x3ddb4024	0.10705593
3	0x3e1380b0	0.14404559
4	0x3ead7349	0.33877018
5	0xbef70b4c	-0.48250806
6	0xbec7d8cc	-0.3903259
7	0x3dd7bdcc	0.10534248
8	0xbe5a8acb	-0.21342008
9	0x3a98cbc5	0.0011657408
10	0xbf0c2356	-0.5474142
